firmware/micro_mnist/model.tflite (tflite, 23184 bytes, 2 tensors)

sequential/dense/MatMul i1 [10, 2028] scale=0.007816833 zero_point=0
-0.007816833 0.070351504 0.2110545 0.015633667 0.039084166 0.054717835 -0.039084166 0.039084166
0.031267334 0.046901003 0.070351504 0.031267334 0.13288617 0.08598517 0.015633667 0.007816833
-0.015633667 -0.06253467 0.015633667 -0.031267334 0.070351504 -0.06253467 -0.031267334 0.031267334
-0.08598517 -0.007816833 -0.17978717 0.046901003 -0.039084166 -0.1641535 0.007816833 -0.054717835
-0.031267334 -0.07816833 -0.054717835 -0.07816833 -0.1172525 0.08598517 -0.13288617 -0.015633667
-0.093802005 -0.17197034 0.007816833 -0.12506934 -0.054717835 -0.07816833 -0.1641535 -0.093802005
-0.20323767 0.13288617 -0.023450501 0.0 -0.10943567 -0.039084166 0.007816833 -0.2110545
-0.023450501 -0.18760401 -0.07816833 -0.101618834 -0.17197034 0.101618834 -0.10943567 0.031267334
-0.031267334 -0.046901003 -0.031267334 -0.10943567 -0.015633667 -0.06253467 -0.07816833 -0.20323767
0.007816833 0.14851983 -0.12506934 -0.06253467 -0.10943567 -0.1172525 -0.054717835 -0.1641535
0.023450501 -0.21887134 -0.101618834 -0.17197034 -0.046901003 0.08598517 -0.08598517 0.06253467
-0.093802005 -0.14070301 0.039084166 -0.15633667 -0.031267334 -0.19542083 -0.19542083 -0.28140602
-0.046901003 0.15633667 -0.1641535 0.070351504 -0.13288617 -0.17197034 0.023450501 -0.1172525
-0.06253467 -0.20323767 -0.13288617 -0.20323767 -0.10943567 -0.023450501 -0.2110545 0.015633667
-0.06253467 -0.12506934 -0.054717835 -0.14070301 -0.12506934 -0.13288617 -0.17197034 -0.14070301
-0.13288617 0.007816833 -0.101618834 0.0 -0.101618834 -0.046901003 -0.046901003 -0.12506934
-0.054717835 -0.12506934 -0.1641535 -0.054717835 -0.10943567 0.06253467 0.0 -0.039084166
0.039084166 0.08598517 -0.06253467 -0.031267334 0.070351504 0.0 -0.054717835 -0.031267334
0.046901003 0.039084166 0.070351504 0.0 -0.046901003 -0.08598517 -0.06253467 -0.046901003
0.007816833 0.0 0.031267334 -0.007816833 -0.023450501 0.1172525 0.031267334 0.054717835
-0.046901003 -0.046901003 0.039084166 0.046901003 -0.023450501 0.015633667 -0.054717835 0.007816833
-0.015633667 0.06253467 -0.28140602 -0.08598517 -0.08598517 -0.26577234 -0.08598517 -0.15633667
-0.023450501 -0.1641535 -0.18760401 -0.06253467 -0.20323767 -0.046901003 -0.101618834 -0.14851983
-0.07816833 0.0 -0.06253467 -0.14070301 0.015633667 -0.08598517 -0.07816833 -0.031267334
-0.328307 0.10943567 -0.015633667 0.031267334 -0.1172525 -0.054717835 -0.054717835 0.023450501
0.031267334 0.031267334 -0.039084166 -0.07816833 -0.25013867 0.039084166 -0.07816833 -0.15633667
0.007816833 -0.031267334 -0.046901003 0.054717835 -0.031267334 0.031267334 -0.023450501 -0.031267334
-0.007816833 -0.13288617 0.015633667 -0.1172525 0.015633667 -0.12506934 0.12506934 0.023450501
0.039084166 0.0 -0.054717835 -0.023450501 -0.046901003 -0.14851983 0.046901003 -0.039084166
-0.007816833 -0.007816833 0.007816833 -0.046901003 0.13288617 -0.023450501 0.007816833 -0.031267334
0.023450501 -0.06253467 0.0 0.039084166 0.0 -0.12506934 -0.101618834 -0.06253467
0.054717835 -0.054717835 -0.046901003 -0.14070301 -0.2110545 0.031267334 0.015633667 0.007816833
00000000: ff09 1b02 0507 fb05 0406 0904 110b 0201
00000010: fef8 02fc 09f8 fc04 f5ff e906 fbeb 01f9
00000020: fcf6 f9f6 f10b effe f4ea 01f0 f9f6 ebf4
00000030: e611 fd00 f2fb 01e5 fde8 f6f3 ea0d f204
00000040: fcfa fcf2 fef8 f6e6 0113 f0f8 f2f1 f9eb
00000050: 03e4 f3ea fa0b f508 f4ee 05ec fce7 e7dc
00000060: fa14 eb09 efea 03f1 f8e6 efe6 f2fd e502
00000070: f8f0 f9ee f0ef eaee ef01 f300 f3fa faf0
00000080: f9f0 ebf9 f208 00fb 050b f8fc 0900 f9fc
00000090: 0605 0900 faf5 f8fa 0100 04ff fd0f 0407
000000a0: fafa 0506 fd02 f901 fe08 dcf5 f5de f5ec
000000b0: fdeb e8f8 e6fa f3ed f600 f8ee 02f5 f6fc
000000c0: d60e fe04 f1f9 f903 0404 fbf6 e005 f6ec
000000d0: 01fc fa07 fc04 fdfc ffef 02f1 02f0 1003
000000e0: 0500 f9fd faed 06fb ffff 01fa 11fd 01fc
000000f0: 03f8 0005 00f0 f3f8 07f9 faee e504 0201

sequential/conv2d/Conv2D i1 [12, 3, 3, 1]
96 -11 -86 120 -25 -127 107 -31
-75 56 94 65 38 27 -11 -114
-127 -118 -127 -112 -43 -9 32 24
117 69 18 -5 82 89 -111 12
87 -127 -94 4 21 75 -127 -21
121 -9 -22 -36 78 -107 52 33
-127 21 47 -82 69 79 94 43
107 13 35 8 -85 -127 80 -48
-21 -3 108 127 75 -65 -48 14
-106 -127 -23 89 -43 -113 77 75
-23 127 -1 -46 51 27 90 -35
-23 120 21 -106 -127 64 79 92
-16 55 15 7 102 -89 12 127
-56 -78 50 30
00000000: 60f5 aa78 e781 6be1 b538 5e41 261b f58e
00000010: 818a 8190 d5f7 2018 7545 12fb 5259 910c
00000020: 5781 a204 154b 81eb 79f7 eadc 4e95 3421
00000030: 8115 2fae 454f 5e2b 6b0d 2308 ab81 50d0
00000040: ebfd 6c7f 4bbf d00e 9681 e959 d58f 4d4b
00000050: e97f ffd2 331b 5add e978 1596 8140 4f5c
00000060: f037 0f07 66a7 0c7f c8b2 321e
