software/micro_mnist/src/model.tflite (tflite, 15544 bytes, 3 tensors)

conv2d/weights_quant/FakeQuantWithMinMaxVars u1 [1, 3, 3, 16] scale=0.0051313695 zero_point=148
0.4053782 0.23604299 -0.19499204 -0.112890124 0.333539 -0.10262739 0.07183917 -0.17959793
0.4053782 0.14367834 0.13341561 0.12315287 0.066707805 0.44129777 0.36432722 0.19499204
-0.07183917 0.22578025 -0.14367834 0.19499204 0.34893313 0.10775876 0.061576433 -0.708129
0.26683122 0.23091163 0.26169986 0.31301352 -0.32840765 0.3848527 0.118021496 0.19499204
-0.32327628 0.10775876 0.092364654 0.32840765 0.30788216 -0.112890124 0.046182327 -0.37458998
-0.041050956 0.2822253 -0.035919584 0.54905653 -0.32327628 0.27196258 -0.4566919 0.0051313695
0.4515605 0.07697054 0.092364654 0.35919586 0.14367834 0.23091163 -0.20525478 0.09749602
-0.5182683 -0.015394108 0.31301352 -0.47208598 0.39511544 0.09749602 0.32327628 -0.31814492
-0.030788217 0.26169986 0.31301352 0.40024683 0.051313695 0.21551752 0.29761943 0.051313695
-0.62602705 0.112890124 0.010262739 0.051313695 -0.0051313695 -0.061576433 -0.63628983 -0.056445062
-0.57471335 -0.041050956 0.08210191 -0.15907246 0.07183917 0.17446657 0.2514371 0.24117437
-0.34380177 0.21551752 -0.36945862 0.2514371 -0.6824721 0.0 -0.31814492 0.025656847
0.42077228 0.13854697 0.07697054 0.20012341 -0.4515605 0.12315287 0.010262739 0.20525478
0.035919584 0.19499204 -0.092364654 -0.49774283 0.47721735 -0.58497614 -0.25656846 -0.2514371
-0.066707805 0.15907246 0.28735667 -0.26169986 -0.5131369 0.32327628 0.10775876 0.44129777
0.32840765 0.27196258 0.3027508 -0.54392517 0.42590368 -0.39511544 -0.7543113 0.18472931
-0.29248807 0.12828423 -0.3027508 -0.29248807 -0.35919586 -0.14367834 -0.07183917 0.44642913
0.22064888 -0.030788217 -0.21551752 0.030788217 0.041050956 -0.17446657 0.43103504 0.37458998
00000000: e3c2 6e7e d580 a271 e3b0 aeac a1ea dbba
00000010: 86c0 78ba d8a9 a00a c8c1 c7d1 54df abba
00000020: 55a9 a6d4 d07e 9d4b 8ccb 8dff 55c9 3b95
00000030: eca3 a6da b0c1 6ca7 2f91 d138 e1a7 d356
00000040: 8ec7 d1e2 9ebe ce9e 1aaa 969e 9388 1889
00000050: 248c a475 a2b6 c5c3 51be 4cc5 0f94 5699
00000060: e6af a3bb 3cac 96bc 9bba 8233 f122 6263
00000070: 87b3 cc61 30d3 a9ea d4c9 cf2a e747 01b8
00000080: 5bad 595b 4e78 86eb bf8e 6a9a 9c72 e8dd

conv2d_1/weights_quant/FakeQuantWithMinMaxVars u1 [32, 3, 3, 16] scale=0.0058926465 zero_point=146
0.15910146 0.1649941 0.18856469 0.2533838 -0.26516908 0.13553087 0.14142352 -0.01767794
0.106067635 0.20034999 0.088389695 0.011785293 0.06481911 -0.1649941 0.17677939 0.011785293
0.20624262 0.08249705 0.01767794 0.19445734 0.011785293 0.03535588 -0.07071176 -0.30052498
0.047141172 0.111960284 0.20034999 -0.2415985 0.1649941 -0.047141172 0.0058926465 -0.12963822
0.01767794 -0.26516908 -0.18856469 -0.20624262 0.041248526 -0.18267204 -0.26516908 -0.053033818
0.08249705 -0.17088675 0.06481911 -0.117852926 -0.10017499 -0.047141172 0.26516908 -0.27695438
0.20624262 0.18267204 -0.0058926465 0.20034999 -0.31231028 0.094282344 0.13553087 -0.18267204
-0.12963822 0.041248526 0.094282344 -0.094282344 -0.0058926465 -0.29463232 0.1649941 0.17677939
0.14731616 0.094282344 0.03535588 0.06481911 -0.058926463 -0.111960284 0.011785293 -0.01767794
0.0058926465 -0.123745576 0.123745576 -0.3948073 0.08249705 -0.2415985 0.023570586 -0.10017499
0.094282344 -0.21802792 -0.18856469 -0.10017499 0.0 -0.10017499 -0.20624262 0.08249705
0.08249705 -0.123745576 -0.111960284 -0.03535588 -0.06481911 -0.20034999 0.029463232 -0.06481911
0.21802792 0.041248526 0.01767794 0.0058926465 -0.32409555 0.094282344 -0.0058926465 -0.28873968
-0.30052498 0.111960284 0.03535588 0.03535588 0.029463232 -0.17088675 -0.117852926 0.17677939
0.14142352 0.047141172 0.053033818 -0.07071176 -0.088389695 -0.047141172 0.041248526 0.058926463
-0.18267204 -0.03535588 -0.0766044 -0.06481911 0.21802792 -0.047141172 -0.023570586 -0.12963822
-0.058926463 -0.053033818 -0.12963822 -0.029463232 0.041248526 -0.047141172 -0.03535588 0.023570586
0.058926463 0.047141172 0.058926463 0.0766044 -0.01767794 0.0 -0.10017499 -0.111960284
0.07071176 -0.029463232 0.21802792 0.03535588 -0.20034999 0.10017499 -0.011785293 0.21213527
0.17677939 -0.047141172 0.047141172 -0.40069997 0.2415985 -0.33588085 -0.13553087 -0.17677939
0.0 -0.18856469 0.011785293 0.17677939 0.058926463 -0.03535588 0.0 0.0058926465
0.023570586 -0.15910146 0.03535588 -0.27695438 -0.011785293 0.03535588 0.0766044 -0.3182029
-0.03535588 -0.053033818 -0.22981322 -0.21213527 0.14142352 -0.18856469 -0.06481911 -0.4065926
-0.12963822 -0.094282344 0.03535588 0.21213527 -0.011785293 0.23570585 -0.20624262 0.011785293
-0.01767794 0.058926463 0.106067635 0.03535588 -0.0766044 0.111960284 -0.053033818 -0.07071176
-0.13553087 0.023570586 0.07071176 -0.1532088 0.13553087 -0.13553087 -0.4301632 0.08249705
-0.047141172 0.047141172 0.06481911 -0.14731616 -0.07071176 -0.0766044 -0.1649941 -0.023570586
0.15910146 -0.07071176 -0.0058926465 -0.22981322 0.25927645 -0.07071176 -0.31231028 0.01767794
-0.0058926465 -0.2533838 -0.0766044 -0.29463232 0.029463232 -0.011785293 -0.15910146 -0.047141172
-0.111960284 -0.14731616 -0.1649941 0.33588085 0.40069997 0.123745576 -0.23570585 -0.20624262
-0.2415985 0.03535588 0.106067635 0.0766044 0.029463232 -0.03535588 0.011785293 -0.011785293
-0.106067635 -0.029463232 0.0 -0.01767794 -0.023570586 0.053033818 -0.47730437 0.041248526
00000000: adae b2bd 65a9 aa8f a4b4 a194 9d76 b094
00000010: b5a0 95b3 9498 865f 9aa5 b469 ae8a 937c
00000020: 9565 726f 9973 6589 a075 9d7e 818a bf63
00000030: b5b1 91b4 5da2 a973 7c99 a282 9160 aeb0
00000040: aba2 989d 887f 948f 937d a74f a069 9681
00000050: a26d 7281 9281 6fa0 a07d 7f8c 8770 9787
00000060: b799 9593 5ba2 9161 5fa5 9898 9775 7eb0
00000070: aa9a 9b86 838a 999c 738c 8587 b78a 8e7c
00000080: 8889 7c8d 998a 8c96 9c9a 9c9f 8f92 817f
00000090: 9e8d b798 70a3 90b6 b08a 9a4e bb59 7b74
000000a0: 9272 94b0 9c8c 9293 9677 9863 9098 9f5c
000000b0: 8c89 6b6e aa72 874d 7c82 98b6 90ba 6f94
000000c0: 8f9c a498 85a5 8986 7b96 9e78 a97b 49a0
000000d0: 8a9a 9d79 8685 768e ad86 916b be86 5d95
000000e0: 9167 8560 9790 778a 7f79 76cb d6a7 6a6f
000000f0: 6998 a49f 978c 9490 808d 928f 8e9b 4199

dense/weights_quant/FakeQuantWithMinMaxVars/transpose u1 [10, 800] scale=0.0051492965 zero_point=152
-0.11843382 0.010298593 0.061791558 -0.025746483 0.08753804 -0.10813522 -0.1596282 -0.08753804
0.015447889 -0.18022537 0.08753804 0.0 -0.09268734 0.036045074 0.051492967 -0.061791558
0.025746483 -0.030895779 0.05664226 -0.12873241 0.036045074 -0.082388744 0.010298593 0.07209015
-0.020597186 -0.11843382 -0.041194372 -0.13903101 -0.020597186 -0.17507608 0.06694085 0.051492967
-0.25746483 -0.05664226 -0.05664226 -0.07209015 -0.11328452 -0.041194372 -0.20082256 -0.18022537
-0.061791558 -0.2935099 -0.015447889 -0.097836636 -0.07723945 0.08753804 0.06694085 -0.11328452
-0.041194372 -0.25746483 0.05664226 -0.36560005 -0.1493296 0.0 -0.1338817 -0.04634367
-0.27806202 -0.18022537 0.010298593 -0.16992678 0.08753804 -0.11328452 -0.036045074 -0.1544789
-0.10298593 0.036045074 -0.030895779 -0.07209015 -0.020597186 -0.16477749 -0.1596282 0.05664226
-0.1544789 -0.13903101 -0.10813522 0.07209015 -0.10298593 0.020597186 0.036045074 0.11843382
0.036045074 -0.28321132 0.05664226 -0.07723945 -0.11843382 -0.19567327 -0.21627045 -0.10298593
-0.0051492965 -0.061791558 -0.1338817 -0.025746483 0.082388744 -0.020597186 0.04634367 -0.010298593
0.010298593 0.030895779 0.0051492965 -0.09268734 0.1441803 -0.010298593 0.010298593 -0.11843382
-0.22656904 -0.123583116 -0.19567327 0.05664226 0.015447889 -0.051492967 0.04634367 -0.036045074
0.18022537 -0.11843382 0.061791558 -0.10298593 -0.082388744 0.010298593 -0.19052397 -0.10298593
-0.10298593 -0.1596282 -0.0051492965 0.10813522 0.04634367 0.041194372 0.010298593 -0.061791558
-0.061791558 0.07723945 0.082388744 0.025746483 0.11843382 -0.015447889 -0.097836636 -0.24201694
0.025746483 -0.1493296 -0.20082256 -0.1493296 0.06694085 -0.020597186 0.010298593 0.010298593
0.21627045 -0.30380848 -0.097836636 -0.09268734 0.030895779 0.036045074 -0.3141071 -0.082388744
-0.05664226 0.0 -0.24716623 -0.051492967 0.10298593 0.010298593 -0.07209015 -0.123583116
-0.1544789 0.082388744 0.123583116 -0.010298593 -0.051492967 -0.04634367 0.015447889 -0.21112116
-0.015447889 -0.24201694 0.16992678 0.06694085 0.061791558 0.07723945 0.10298593 -0.051492967
0.08753804 0.08753804 0.08753804 -0.07723945 0.020597186 -0.05664226 -0.025746483 0.1596282
-0.1493296 0.07209015 0.082388744 -0.09268734 0.13903101 0.07723945 0.09268734 0.0051492965
-0.22141975 0.061791558 0.030895779 0.020597186 0.0 -0.07209015 0.10298593 -0.036045074
-0.07723945 0.13903101 -0.10813522 0.10298593 -0.025746483 0.09268734 -0.05664226 -0.061791558
-0.097836636 -0.18537468 0.06694085 0.015447889 -0.010298593 0.030895779 -0.1596282 -0.04634367
-0.13903101 0.030895779 -0.07209015 0.025746483 0.036045074 0.123583116 0.097836636 0.051492967
-0.015447889 -0.015447889 0.10298593 0.082388744 0.020597186 -0.015447889 -0.11328452 -0.051492967
-0.10813522 0.036045074 -0.07209015 0.06694085 0.036045074 0.030895779 0.06694085 -0.04634367
0.030895779 0.025746483 0.082388744 0.030895779 -0.08753804 -0.030895779 -0.10298593 -0.015447889
-0.09268734 -0.061791558 -0.09268734 -0.036045074 0.05664226 0.10813522 0.010298593 0.10813522
00000000: 819a a493 a983 7987 9b75 a998 869f a28c
00000010: 9d92 a37f 9f88 9aa6 9481 907d 9476 a5a2
00000020: 668d 8d8a 8290 7175 8c5f 9585 89a9 a582
00000030: 9066 a351 7b98 7e8f 6275 9a77 a982 917a
00000040: 849f 928a 9478 79a3 7a7d 83a6 849c 9faf
00000050: 9f61 a389 8172 6e84 978c 7e93 a894 a196
00000060: 9a9e 9986 b496 9a81 6c80 72a3 9b8e a191
00000070: bb81 a484 889a 7384 8479 97ad a1a0 9a8c
00000080: 8ca7 a89d af95 8569 9d7b 717b a594 9a9a
00000090: c25d 8586 9e9f 5b88 8d98 688e ac9a 8a80
000000a0: 7aa8 b096 8e8f 9b6f 9569 b9a5 a4a7 ac8e
000000b0: a9a9 a989 9c8d 93b7 7ba6 a886 b3a7 aa99
000000c0: 6da4 9e9c 988a ac91 89b3 83ac 93aa 8d8c
000000d0: 8574 a59b 969e 798f 7d9e 8a9d 9fb0 aba2
000000e0: 9595 aca8 9c95 828e 839f 8aa5 9f9e a58f
000000f0: 9e9d a89e 8792 8495 868c 8691 a3ad 9aad
